…
 3rd Qu.:1.0000   3rd Qu.:0.00000   3rd Qu.:1.0000   3rd Qu.:0.00000   3rd Qu.:0.0000   3rd Qu.:0.0000  
 Max.   :1.0000   Max.   :1.00000   Max.   :1.0000   Max.   :1.00000   Max.   :1.0000   Max.   :1.0000  
Model: "sequential"
____________________________________________________________________________________________________________
 Layer (type)                                   Output Shape                               Param #          
============================================================================================================
 dense_3 (Dense)                                (None, 64)                                 768              
 re_lu (ReLU)                                   (None, 64)                                 0                
 dense_2 (Dense)                                (None, 128)                                8320             
 dropout (Dropout)                              (None, 128)                                0                
 dense_1 (Dense)                                (None, 64)                                 8256             
 dense (Dense)                                  (None, 1)                                  65               
============================================================================================================
Total params: 17,409
Trainable params: 17,409
Non-trainable params: 0
____________________________________________________________________________________________________________
[1] "Model 3. TS_outcome = Personal + DC_outcome."
[1] "AUC: 0.744111759799833"
[1] "Model 3. TS_outcome = Personal + DC_outcome."
…
Number of Fisher Scoring iterations: 4

[1] "Model 2. TS_outcome = Profession +Sex + Age+ YearsWorking"
[1] "AUC: 0.64535446205171"

	Shapiro-Wilk normality test

data:  ds$residuals
W = 0.83018, p-value < 2.2e-16

RStudioGD 
        2 
Model: "sequential_1"
____________________________________________________________________________________________________________
 Layer (type)                                   Output Shape                               Param #          
============================================================================================================
 dense_7 (Dense)                                (None, 64)                                 768              
 re_lu_1 (ReLU)                                 (None, 64)                                 0                
 dense_6 (Dense)                                (None, 128)                                8320             
 dropout_1 (Dropout)                            (None, 128)                                0                
 dense_5 (Dense)                                (None, 64)                                 8256             
 dense_4 (Dense)                                (None, 1)                                  65               
============================================================================================================
Total params: 17,409
Trainable params: 17,409
Non-trainable params: 0
____________________________________________________________________________________________________________

...........................................................Model: "sequential_2"
____________________________________________________________________________________________________________
 Layer (type)                                   Output Shape                               Param #          
============================================================================================================
 dense_11 (Dense)                               (None, 64)                                 768              
 re_lu_2 (ReLU)                                 (None, 64)                                 0                
 dense_10 (Dense)                               (None, 128)                                8320             
 dropout_2 (Dropout)                            (None, 128)                                0                
 dense_9 (Dense)                                (None, 64)                                 8256             
 dense_8 (Dense)                                (None, 1)                                  65               
============================================================================================================
Total params: 17,409
Trainable params: 17,409
Non-trainable params: 0
____________________________________________________________________________________________________________

....................................................[1] "AUC: 0.743943191311612"
[1] "AUC train: 1"
[1] "AUC test: 0.743943191311612"
Model: "sequential_3"
_________________________________________________________________________________________________
 Layer (type)                              Output Shape                           Param #        
=================================================================================================
 dense_15 (Dense)                          (None, 32)                             384            
 batch_normalization_1 (BatchNormalization  (None, 32)                            128            
 )                                                                                               
 re_lu_3 (ReLU)                            (None, 32)                             0              
 dropout_5 (Dropout)                       (None, 32)                             0              
 dense_14 (Dense)                          (None, 64)                             2112           
 batch_normalization (BatchNormalization)  (None, 64)                             256            
 dropout_4 (Dropout)                       (None, 64)                             0              
 dense_13 (Dense)                          (None, 32)                             2080           
 dropout_3 (Dropout)                       (None, 32)                             0              
 dense_12 (Dense)                          (None, 1)                              33             
=================================================================================================
Total params: 4,993
Trainable params: 4,801
Non-trainable params: 192
_________________________________________________________________________________________________

................................................................................
................................................................................
......................[1] "AUC train: 1"
[1] "AUC test: 0.706726825266612"
Model: "sequential_4"
____________________________________________________________________________________________________________
 Layer (type)                                   Output Shape                               Param #          
============================================================================================================
 dense_19 (Dense)                               (None, 16)                                 192              
 re_lu_4 (ReLU)                                 (None, 16)                                 0                
 dense_18 (Dense)                               (None, 32)                                 544              
 dropout_6 (Dropout)                            (None, 32)                                 0                
 dense_17 (Dense)                               (None, 16)                                 528              
 dense_16 (Dense)                               (None, 1)                                  17               
============================================================================================================
Total params: 1,281
Trainable params: 1,281
Non-trainable params: 0
____________________________________________________________________________________________________________

..................................[1] "AUC train: 1"
[1] "AUC test: 0.679338842975207"
Model: "sequential_5"
____________________________________________________________________________________________________________
 Layer (type)                                   Output Shape                               Param #          
============================================================================================================
 dense_24 (Dense)                               (None, 64)                                 768              
 re_lu_5 (ReLU)                                 (None, 64)                                 0                
 dense_23 (Dense)                               (None, 128)                                8320             
 dropout_7 (Dropout)                            (None, 128)                                0                
 dense_22 (Dense)                               (None, 64)                                 8256             
 dense_21 (Dense)                               (None, 64)                                 4160             
 dense_20 (Dense)                               (None, 1)                                  65               
============================================================================================================
Total params: 21,569
Trainable params: 21,569
Non-trainable params: 0
____________________________________________________________________________________________________________

.......................[1] "AUC train: 1"
[1] "AUC test: 0.717619848612279"
Model: "sequential_6"
____________________________________________________________________________________________________________
 Layer (type)                                   Output Shape                               Param #          
============================================================================================================
 dense_28 (Dense)                               (None, 64)                                 768              
 re_lu_6 (ReLU)                                 (None, 64)                                 0                
 dense_27 (Dense)                               (None, 128)                                8320             
 dropout_8 (Dropout)                            (None, 128)                                0                
 dense_26 (Dense)                               (None, 64)                                 8256             
 dense_25 (Dense)                               (None, 1)                                  65               
============================================================================================================
Total params: 17,409
Trainable params: 17,409
Non-trainable params: 0
____________________________________________________________________________________________________________

..........................[1] "AUC train: 1"
[1] "AUC test: 0.821691176470588"
Model: "sequential_7"
____________________________________________________________________________________________________________
 Layer (type)                                   Output Shape                               Param #          
============================================================================================================
 dense_32 (Dense)                               (None, 64)                                 768              
 re_lu_7 (ReLU)                                 (None, 64)                                 0                
 dense_31 (Dense)                               (None, 128)                                8320             
 dropout_9 (Dropout)                            (None, 128)                                0                
 dense_30 (Dense)                               (None, 64)                                 8256             
 dense_29 (Dense)                               (None, 1)                                  65               
============================================================================================================
Total params: 17,409
Trainable params: 17,409
Non-trainable params: 0
____________________________________________________________________________________________________________

.............................................................[1] "AUC train: 1"
[1] "AUC test: 0.683347005742412"
Model: "sequential_8"
____________________________________________________________________________________________________________
 Layer (type)                                   Output Shape                               Param #          
============================================================================================================
 dense_40 (Dense)                               (None, 64)                                 768              
 re_lu_9 (ReLU)                                 (None, 64)                                 0                
 dense_39 (Dense)                               (None, 128)                                8320             
 dropout_11 (Dropout)                           (None, 128)                                0                
 dense_38 (Dense)                               (None, 64)                                 8256             
 dense_37 (Dense)                               (None, 1)                                  65               
============================================================================================================
Total params: 17,409
Trainable params: 17,409
Non-trainable params: 0
____________________________________________________________________________________________________________

.....................................[1] "AUC train: 1"
[1] "AUC test: 0.595510204081633"
Model: "sequential_9"
____________________________________________________________________________________________________________
 Layer (type)                                   Output Shape                               Param #          
============================================================================================================
 dense_44 (Dense)                               (None, 64)                                 768              
 re_lu_10 (ReLU)                                (None, 64)                                 0                
 dense_43 (Dense)                               (None, 128)                                8320             
 dropout_12 (Dropout)                           (None, 128)                                0                
 dense_42 (Dense)                               (None, 64)                                 8256             
 dense_41 (Dense)                               (None, 1)                                  65               
============================================================================================================
Total params: 17,409
Trainable params: 17,409
Non-trainable params: 0
____________________________________________________________________________________________________________

...............................................................[1] "AUC train: 1"
[1] "AUC test: 0.670405522001726"
Model: "sequential_10"
_________________________________________________________________________________________________
 Layer (type)                              Output Shape                           Param #        
=================================================================================================
 dense_48 (Dense)                          (None, 64)                             768            
 batch_normalization_3 (BatchNormalization  (None, 64)                            256            
 )                                                                                               
 re_lu_11 (ReLU)                           (None, 64)                             0              
 dropout_15 (Dropout)                      (None, 64)                             0              
 dense_47 (Dense)                          (None, 128)                            8320           
 batch_normalization_2 (BatchNormalization  (None, 128)                           512            
 )                                                                                               
 dropout_14 (Dropout)                      (None, 128)                            0              
 dense_46 (Dense)                          (None, 64)                             8256           
 dropout_13 (Dropout)                      (None, 64)                             0              
 dense_45 (Dense)                          (None, 1)                              65             
=================================================================================================
Total params: 18,177
Trainable params: 17,793
Non-trainable params: 384
_________________________________________________________________________________________________

................................................................................
................................................................................
.............[1] "AUC train: 1"
[1] "AUC test: 0.674793388429752"
Model: "sequential_11"
_________________________________________________________________________________________________
 Layer (type)                              Output Shape                           Param #        
=================================================================================================
 dense_52 (Dense)                          (None, 64)                             768            
 batch_normalization_5 (BatchNormalization  (None, 64)                            256            
 )                                                                                               
 re_lu_12 (ReLU)                           (None, 64)                             0              
 dropout_18 (Dropout)                      (None, 64)                             0              
 dense_51 (Dense)                          (None, 128)                            8320           
 batch_normalization_4 (BatchNormalization  (None, 128)                           512            
 )                                                                                               
 dropout_17 (Dropout)                      (None, 128)                            0              
 dense_50 (Dense)                          (None, 64)                             8256           
 dropout_16 (Dropout)                      (None, 64)                             0              
 dense_49 (Dense)                          (None, 1)                              65             
=================================================================================================
Total params: 18,177
Trainable params: 17,793
Non-trainable params: 384
_________________________________________________________________________________________________

..........................[1] "AUC train: 1"
[1] "AUC test: 0.636316872427984"
Model: "sequential_12"
_________________________________________________________________________________________________
 Layer (type)                              Output Shape                           Param #        
=================================================================================================
 dense_56 (Dense)                          (None, 64)                             768            
 batch_normalization_7 (BatchNormalization  (None, 64)                            256            
 )                                                                                               
 re_lu_13 (ReLU)                           (None, 64)                             0              
 dropout_21 (Dropout)                      (None, 64)                             0              
 dense_55 (Dense)                          (None, 128)                            8320           
 batch_normalization_6 (BatchNormalization  (None, 128)                           512            
 )                                                                                               
 dropout_20 (Dropout)                      (None, 128)                            0              
 dense_54 (Dense)                          (None, 64)                             8256           
 dropout_19 (Dropout)                      (None, 64)                             0              
 dense_53 (Dense)                          (None, 1)                              65             
=================================================================================================
Total params: 18,177
Trainable params: 17,793
Non-trainable params: 384
_________________________________________________________________________________________________

.................................................................[1] "AUC train: 1"
[1] "AUC test: 0.698089700996678"
…
